…
2026-01-31 22:26:41 INFO ==> ACC | bACC | F1 | AUC: 0.6506550218340611 0.5765702891326021 0.5703564727954972 0.557926221335992
2026-01-31 22:26:41 INFO ==> ------------------------------------------------------------
2026-01-31 22:26:41 INFO ==> Average ACC | bACC | F1 | AUC: 0.6310983423963548 0.5285359119017415 0.5226929718310153 0.543694409068774
Default device set to CUDA.
==========================================================================================
Layer (type:depth-idx)                   Output Shape              Param #
==========================================================================================
MambaMAE                                 [1, 1]                    --
├─PatchMasking: 1-1                      [1, 2, 1440]              --
├─Identity: 1-2                          [1, 2, 1440]              --
├─MambaModel: 1-3                        [1, 1440, 128]            --
│    └─Linear: 2-1                       [1, 1440, 128]            256
│    └─ModuleList: 2-2                   --                        --
│    │    └─MambaBlock: 3-1              [1, 1440, 128]            116,736
│    │    └─MambaBlock: 3-2              [1, 1440, 128]            116,736
│    │    └─MambaBlock: 3-3              [1, 1440, 128]            116,736
│    │    └─MambaBlock: 3-4              [1, 1440, 128]            116,736
│    │    └─MambaBlock: 3-5              [1, 1440, 128]            116,736
│    │    └─MambaBlock: 3-6              [1, 1440, 128]            116,736
│    └─Identity: 2-3                     [1, 1440, 128]            --
├─LayerNorm: 1-4                         [1, 1440, 128]            256
├─LogisticRegressionHead: 1-5            [1, 1]                    --
│    └─Linear: 2-4                       [1, 1]                    184,321
==========================================================================================
Total params: 885,249
Trainable params: 885,249
Non-trainable params: 0
Total mult-adds (Units.MEGABYTES): 99.94
==========================================================================================
Input size (MB): 0.01
Forward/backward pass size (MB): 41.14
Params size (MB): 1.81
Estimated Total Size (MB): 42.96
==========================================================================================
==========================================================================================
Layer (type:depth-idx)                   Output Shape              Param #
==========================================================================================
MambaMAE                                 [1, 1]                    --
├─PatchMasking: 1-1                      [1, 2, 1440]              --
├─Identity: 1-2                          [1, 2, 1440]              --
├─MambaModel: 1-3                        [1, 1440, 128]            --
│    └─Linear: 2-1                       [1, 1440, 128]            256
│    └─ModuleList: 2-2                   --                        --
│    │    └─MambaBlock: 3-1              [1, 1440, 128]            116,736
│    │    └─MambaBlock: 3-2              [1, 1440, 128]            116,736
│    │    └─MambaBlock: 3-3              [1, 1440, 128]            116,736
│    │    └─MambaBlock: 3-4              [1, 1440, 128]            116,736
│    │    └─MambaBlock: 3-5              [1, 1440, 128]            116,736
│    │    └─MambaBlock: 3-6              [1, 1440, 128]            116,736
│    └─Identity: 2-3                     [1, 1440, 128]            --
├─LayerNorm: 1-4                         [1, 1440, 128]            256
├─LogisticRegressionHead: 1-5            [1, 1]                    --
│    └─Linear: 2-4                       [1, 1]                    184,321
==========================================================================================
Total params: 885,249
Trainable params: 885,249
Non-trainable params: 0
Total mult-adds (Units.MEGABYTES): 99.94
==========================================================================================
Input size (MB): 0.01
Forward/backward pass size (MB): 41.14
Params size (MB): 1.81
Estimated Total Size (MB): 42.96
==========================================================================================
==========================================================================================
Layer (type:depth-idx)                   Output Shape              Param #
==========================================================================================
MambaMAE                                 [1, 1]                    --
├─PatchMasking: 1-1                      [1, 2, 1440]              --
├─Identity: 1-2                          [1, 2, 1440]              --
├─MambaModel: 1-3                        [1, 1440, 128]            --
│    └─Linear: 2-1                       [1, 1440, 128]            256
│    └─ModuleList: 2-2                   --                        --
│    │    └─MambaBlock: 3-1              [1, 1440, 128]            116,736
│    │    └─MambaBlock: 3-2              [1, 1440, 128]            116,736
│    │    └─MambaBlock: 3-3              [1, 1440, 128]            116,736
│    │    └─MambaBlock: 3-4              [1, 1440, 128]            116,736
│    │    └─MambaBlock: 3-5              [1, 1440, 128]            116,736
│    │    └─MambaBlock: 3-6              [1, 1440, 128]            116,736
│    └─Identity: 2-3                     [1, 1440, 128]            --
├─LayerNorm: 1-4                         [1, 1440, 128]            256
├─LogisticRegressionHead: 1-5            [1, 1]                    --
│    └─Linear: 2-4                       [1, 1]                    184,321
==========================================================================================
Total params: 885,249
Trainable params: 885,249
Non-trainable params: 0
Total mult-adds (Units.MEGABYTES): 99.94
==========================================================================================
Input size (MB): 0.01
Forward/backward pass size (MB): 41.14
Params size (MB): 1.81
Estimated Total Size (MB): 42.96
==========================================================================================
==========================================================================================
Layer (type:depth-idx)                   Output Shape              Param #
==========================================================================================
MambaMAE                                 [1, 1]                    --
├─PatchMasking: 1-1                      [1, 2, 1440]              --
├─Identity: 1-2                          [1, 2, 1440]              --
├─MambaModel: 1-3                        [1, 1440, 128]            --
│    └─Linear: 2-1                       [1, 1440, 128]            256
│    └─ModuleList: 2-2                   --                        --
│    │    └─MambaBlock: 3-1              [1, 1440, 128]            116,736
│    │    └─MambaBlock: 3-2              [1, 1440, 128]            116,736
│    │    └─MambaBlock: 3-3              [1, 1440, 128]            116,736
│    │    └─MambaBlock: 3-4              [1, 1440, 128]            116,736
│    │    └─MambaBlock: 3-5              [1, 1440, 128]            116,736
│    │    └─MambaBlock: 3-6              [1, 1440, 128]            116,736
│    └─Identity: 2-3                     [1, 1440, 128]            --
├─LayerNorm: 1-4                         [1, 1440, 128]            256
├─LogisticRegressionHead: 1-5            [1, 1]                    --
│    └─Linear: 2-4                       [1, 1]                    184,321
==========================================================================================
Total params: 885,249
Trainable params: 885,249
Non-trainable params: 0
Total mult-adds (Units.MEGABYTES): 99.94
==========================================================================================
Input size (MB): 0.01
Forward/backward pass size (MB): 41.14
Params size (MB): 1.81
Estimated Total Size (MB): 42.96
…
