…
2026-01-31 21:27:47 INFO ==> S4: Initializing kernel to length 1440
2026-01-31 21:27:47 INFO ==> S4: Initializing kernel to length 1440
2026-01-31 21:27:47 INFO ==> S4: Initializing kernel to length 1440
2026-01-31 21:27:47 INFO ==> S4: Initializing kernel to length 1440
Default device set to CUDA.
Setting decoder to identity mapping.
===============================================================================================
Layer (type:depth-idx)                        Output Shape              Param #
===============================================================================================
S4MAE                                         [1, 1]                    --
├─PatchMasking: 1-1                           [1, 2, 1440]              --
├─Identity: 1-2                               [1, 2, 1440]              --
├─S4Model: 1-3                                [1, 1440, 128]            --
│    └─Linear: 2-1                            [1, 1440, 128]            384
│    └─ModuleList: 2-17                       --                        (recursive)
│    │    └─S4Block: 3-1                      [1, 128, 1440]            66,048
│    └─ModuleList: 2-18                       --                        --
│    │    └─Dropout1d: 3-2                    [1, 128, 1440]            --
│    └─ModuleList: 2-19                       --                        (recursive)
│    │    └─LayerNorm: 3-3                    [1, 1440, 128]            256
│    └─ModuleList: 2-17                       --                        (recursive)
│    │    └─S4Block: 3-4                      [1, 128, 1440]            66,048
│    └─ModuleList: 2-18                       --                        --
│    │    └─Dropout1d: 3-5                    [1, 128, 1440]            --
│    └─ModuleList: 2-19                       --                        (recursive)
│    │    └─LayerNorm: 3-6                    [1, 1440, 128]            256
│    └─ModuleList: 2-17                       --                        (recursive)
│    │    └─S4Block: 3-7                      [1, 128, 1440]            66,048
│    └─ModuleList: 2-18                       --                        --
│    │    └─Dropout1d: 3-8                    [1, 128, 1440]            --
│    └─ModuleList: 2-19                       --                        (recursive)
│    │    └─LayerNorm: 3-9                    [1, 1440, 128]            256
│    └─ModuleList: 2-17                       --                        (recursive)
│    │    └─S4Block: 3-10                     [1, 128, 1440]            66,048
│    └─ModuleList: 2-18                       --                        --
│    │    └─Dropout1d: 3-11                   [1, 128, 1440]            --
│    └─ModuleList: 2-19                       --                        (recursive)
│    │    └─LayerNorm: 3-12                   [1, 1440, 128]            256
│    └─ModuleList: 2-17                       --                        (recursive)
│    │    └─S4Block: 3-13                     [1, 128, 1440]            66,048
│    └─ModuleList: 2-18                       --                        --
│    │    └─Dropout1d: 3-14                   [1, 128, 1440]            --
│    └─ModuleList: 2-19                       --                        (recursive)
│    │    └─LayerNorm: 3-15                   [1, 1440, 128]            256
│    └─ModuleList: 2-17                       --                        (recursive)
│    │    └─S4Block: 3-16                     [1, 128, 1440]            66,048
│    └─ModuleList: 2-18                       --                        --
│    │    └─Dropout1d: 3-17                   [1, 128, 1440]            --
│    └─ModuleList: 2-19                       --                        (recursive)
│    │    └─LayerNorm: 3-18                   [1, 1440, 128]            256
│    └─Linear: 2-20                           [1, 1440, 128]            16,512
├─LogisticRegressionHead: 1-4                 [1, 1]                    --
│    └─Linear: 2-21                           [1, 1]                    184,321
===============================================================================================
Total params: 599,041
Trainable params: 599,041
Non-trainable params: 0
Total mult-adds (Units.MEGABYTES): 0.40
===============================================================================================
Input size (MB): 0.01
Forward/backward pass size (MB): 38.34
Params size (MB): 2.39
Estimated Total Size (MB): 40.74
…
