…
2025-12-19 09:04:12 INFO ==> Constructing S4 (H, N, L) = (128, 32, None)
2025-12-19 09:04:13 INFO ==> S4: Initializing kernel to length 1440
2025-12-19 09:04:13 INFO ==> S4: Initializing kernel to length 1440
2025-12-19 09:04:13 INFO ==> S4: Initializing kernel to length 1440
2025-12-19 09:04:13 INFO ==> S4: Initializing kernel to length 1440
===============================================================================================
Layer (type:depth-idx)                        Output Shape              Param #
===============================================================================================
S4MAE                                         [1, 2, 1440]              --
├─PatchMasking: 1-1                           [1, 2, 1440]              --
├─Identity: 1-2                               [1, 2, 1440]              --
├─S4Model: 1-3                                [1, 1440, 128]            --
│    └─Linear: 2-1                            [1, 1440, 128]            384
│    └─ModuleList: 2-11                       --                        (recursive)
│    │    └─S4Block: 3-1                      [1, 128, 1440]            66,048
│    └─ModuleList: 2-12                       --                        --
│    │    └─Dropout1d: 3-2                    [1, 128, 1440]            --
│    └─ModuleList: 2-13                       --                        (recursive)
│    │    └─LayerNorm: 3-3                    [1, 1440, 128]            256
│    └─ModuleList: 2-11                       --                        (recursive)
│    │    └─S4Block: 3-4                      [1, 128, 1440]            66,048
│    └─ModuleList: 2-12                       --                        --
│    │    └─Dropout1d: 3-5                    [1, 128, 1440]            --
│    └─ModuleList: 2-13                       --                        (recursive)
│    │    └─LayerNorm: 3-6                    [1, 1440, 128]            256
│    └─ModuleList: 2-11                       --                        (recursive)
│    │    └─S4Block: 3-7                      [1, 128, 1440]            66,048
│    └─ModuleList: 2-12                       --                        --
│    │    └─Dropout1d: 3-8                    [1, 128, 1440]            --
│    └─ModuleList: 2-13                       --                        (recursive)
│    │    └─LayerNorm: 3-9                    [1, 1440, 128]            256
│    └─ModuleList: 2-11                       --                        (recursive)
│    │    └─S4Block: 3-10                     [1, 128, 1440]            66,048
│    └─ModuleList: 2-12                       --                        --
│    │    └─Dropout1d: 3-11                   [1, 128, 1440]            --
│    └─ModuleList: 2-13                       --                        (recursive)
│    │    └─LayerNorm: 3-12                   [1, 1440, 128]            256
│    └─Linear: 2-14                           [1, 1440, 128]            16,512
├─ConvDecoder: 1-4                            [1, 2, 1440]              --
│    └─ModuleList: 2-15                       --                        --
│    │    └─BlockConv: 3-13                   [1, 64, 1440]             24,768
│    │    └─BlockConv: 3-14                   [1, 32, 1440]             6,240
│    │    └─BlockDecoderLast: 3-15            [1, 2, 1440]              198
===============================================================================================
Total params: 313,318
Trainable params: 313,318
Non-trainable params: 0
Total mult-adds (Units.MEGABYTES): 44.80
===============================================================================================
Input size (MB): 0.01
Forward/backward pass size (MB): 51.66
Params size (MB): 1.98
Estimated Total Size (MB): 53.64
…
