…
2026-01-25 16:31:09 INFO ==> Loading data from /data/open_data/tiles-2018-processed/tiles-opendataset/fitbit.
{'d_input': 2,
 'd_model': 128,
 'd_output': 128,
 'dec_hidden_dims': [128, 64, 32],
 'enc_hidden_dims': None,
 'mask_ratio': 0.1,
 'n_layers_seq': 6,
 'verbose': False}
Default device set to CUDA.
===============================================================================================
Layer (type:depth-idx)                        Output Shape              Param #
===============================================================================================
MambaMAE                                      [1, 2, 1440]              --
├─PatchMasking: 1-1                           [1, 2, 1440]              --
├─Identity: 1-2                               [1, 2, 1440]              --
├─MambaModel: 1-3                             [1, 1440, 128]            --
│    └─Linear: 2-1                            [1, 1440, 128]            256
│    └─ModuleList: 2-2                        --                        --
│    │    └─MambaBlock: 3-1                   [1, 1440, 128]            116,736
│    │    └─MambaBlock: 3-2                   [1, 1440, 128]            116,736
│    │    └─MambaBlock: 3-3                   [1, 1440, 128]            116,736
│    │    └─MambaBlock: 3-4                   [1, 1440, 128]            116,736
│    │    └─MambaBlock: 3-5                   [1, 1440, 128]            116,736
│    │    └─MambaBlock: 3-6                   [1, 1440, 128]            116,736
│    └─Identity: 2-3                          [1, 1440, 128]            --
├─LayerNorm: 1-4                              [1, 1440, 128]            256
├─ConvDecoder: 1-5                            [1, 2, 1440]              --
│    └─ModuleList: 2-4                        --                        --
│    │    └─BlockConv: 3-7                    [1, 64, 1440]             24,768
│    │    └─BlockConv: 3-8                    [1, 32, 1440]             6,240
│    │    └─BlockDecoderLast: 3-9             [1, 2, 1440]              198
===============================================================================================
Total params: 732,134
Trainable params: 732,134
Non-trainable params: 0
Total mult-adds (Units.MEGABYTES): 144.41
===============================================================================================
Input size (MB): 0.01
Forward/backward pass size (MB): 43.38
Params size (MB): 1.20
Estimated Total Size (MB): 44.58
…
