…
wandb: Synced 5 W&B file(s), 0 media file(s), 2 artifact file(s) and 0 other file(s)
wandb: Find logs at: ./wandb/run-20260131_054153-rpep0p0u/logs
{'d_input': 2,
 'd_model': 128,
 'd_output': 128,
 'dec_hidden_dims': [128, 64, 32],
 'enc_hidden_dims': [32, 64, 128],
 'mask_ratio': 0.7,
 'n_layers_seq': 6,
 'verbose': False}
Default device set to CUDA.
===============================================================================================
Layer (type:depth-idx)                        Output Shape              Param #
===============================================================================================
MambaMAE                                      [1, 2, 1440]              --
в”њв”ЂPatchMasking: 1-1                           [1, 2, 1440]              --
в”њв”ЂConvEncoder: 1-2                            [1, 128, 180]             --
в”‚    в””в”ЂModuleList: 2-1                        --                        --
в”‚    в”‚    в””в”ЂBlockConv: 3-1                    [1, 32, 720]              288
в”‚    в”‚    в””в”ЂBlockConv: 3-2                    [1, 64, 360]              6,336
в”‚    в”‚    в””в”ЂBlockConv: 3-3                    [1, 128, 180]             24,960
в”њв”ЂMambaModel: 1-3                             [1, 180, 128]             --
в”‚    в””в”ЂLinear: 2-2                            [1, 180, 128]             16,384
в”‚    в””в”ЂModuleList: 2-3                        --                        --
в”‚    в”‚    в””в”ЂMambaBlock: 3-4                   [1, 180, 128]             116,736
в”‚    в”‚    в””в”ЂMambaBlock: 3-5                   [1, 180, 128]             116,736
в”‚    в”‚    в””в”ЂMambaBlock: 3-6                   [1, 180, 128]             116,736
в”‚    в”‚    в””в”ЂMambaBlock: 3-7                   [1, 180, 128]             116,736
в”‚    в”‚    в””в”ЂMambaBlock: 3-8                   [1, 180, 128]             116,736
в”‚    в”‚    в””в”ЂMambaBlock: 3-9                   [1, 180, 128]             116,736
в”‚    в””в”ЂIdentity: 2-4                          [1, 180, 128]             --
в”њв”ЂLayerNorm: 1-4                              [1, 180, 128]             256
в”њв”ЂConvDecoder: 1-5                            [1, 2, 1440]              --
в”‚    в””в”ЂModuleList: 2-5                        --                        --
в”‚    в”‚    в””в”ЂBlockConv: 3-10                   [1, 64, 360]              24,768
в”‚    в”‚    в””в”ЂBlockConv: 3-11                   [1, 32, 720]              6,240
в”‚    в”‚    в””в”ЂBlockDecoderLast: 3-12            [1, 2, 1440]              198
===============================================================================================
Total params: 779,846
Trainable params: 779,846
Non-trainable params: 0
Total mult-adds (Units.MEGABYTES): 33.12
===============================================================================================
Input size (MB): 0.01
Forward/backward pass size (MB): 7.04
Params size (MB): 1.39
Estimated Total Size (MB): 8.44
…
