…
wandb: Synced 5 W&B file(s), 0 media file(s), 2 artifact file(s) and 0 other file(s)
wandb: Find logs at: ./wandb/run-20260131_053329-0q8hg4t1/logs
{'d_input': 2,
 'd_model': 128,
 'd_output': 128,
 'dec_hidden_dims': [128, 64, 32],
 'enc_hidden_dims': [32, 64, 128],
 'mask_ratio': 0.3,
 'n_layers_seq': 6,
 'verbose': False}
Default device set to CUDA.
===============================================================================================
Layer (type:depth-idx)                        Output Shape              Param #
===============================================================================================
MambaMAE                                      [1, 2, 1440]              --
в”ңв”ҖPatchMasking: 1-1                           [1, 2, 1440]              --
в”ңв”ҖConvEncoder: 1-2                            [1, 128, 180]             --
в”Ӯ    в””в”ҖModuleList: 2-1                        --                        --
в”Ӯ    в”Ӯ    в””в”ҖBlockConv: 3-1                    [1, 32, 720]              288
в”Ӯ    в”Ӯ    в””в”ҖBlockConv: 3-2                    [1, 64, 360]              6,336
в”Ӯ    в”Ӯ    в””в”ҖBlockConv: 3-3                    [1, 128, 180]             24,960
в”ңв”ҖMambaModel: 1-3                             [1, 180, 128]             --
в”Ӯ    в””в”ҖLinear: 2-2                            [1, 180, 128]             16,384
в”Ӯ    в””в”ҖModuleList: 2-3                        --                        --
в”Ӯ    в”Ӯ    в””в”ҖMambaBlock: 3-4                   [1, 180, 128]             116,736
в”Ӯ    в”Ӯ    в””в”ҖMambaBlock: 3-5                   [1, 180, 128]             116,736
в”Ӯ    в”Ӯ    в””в”ҖMambaBlock: 3-6                   [1, 180, 128]             116,736
в”Ӯ    в”Ӯ    в””в”ҖMambaBlock: 3-7                   [1, 180, 128]             116,736
в”Ӯ    в”Ӯ    в””в”ҖMambaBlock: 3-8                   [1, 180, 128]             116,736
в”Ӯ    в”Ӯ    в””в”ҖMambaBlock: 3-9                   [1, 180, 128]             116,736
в”Ӯ    в””в”ҖIdentity: 2-4                          [1, 180, 128]             --
в”ңв”ҖLayerNorm: 1-4                              [1, 180, 128]             256
в”ңв”ҖConvDecoder: 1-5                            [1, 2, 1440]              --
в”Ӯ    в””в”ҖModuleList: 2-5                        --                        --
в”Ӯ    в”Ӯ    в””в”ҖBlockConv: 3-10                   [1, 64, 360]              24,768
в”Ӯ    в”Ӯ    в””в”ҖBlockConv: 3-11                   [1, 32, 720]              6,240
в”Ӯ    в”Ӯ    в””в”ҖBlockDecoderLast: 3-12            [1, 2, 1440]              198
===============================================================================================
Total params: 779,846
Trainable params: 779,846
Non-trainable params: 0
Total mult-adds (Units.MEGABYTES): 33.12
===============================================================================================
Input size (MB): 0.01
Forward/backward pass size (MB): 7.04
Params size (MB): 1.39
Estimated Total Size (MB): 8.44
…
