…
2026-01-25 16:14:42 INFO ==> Loading data from /data/open_data/tiles-2018-processed/tiles-opendataset/fitbit.
{'d_input': 2,
 'd_model': 128,
 'd_output': 128,
 'dec_hidden_dims': [128, 64, 32],
 'enc_hidden_dims': None,
 'mask_ratio': 0.5,
 'n_layers_s4': 6,
 'verbose': False}
Default device set to CUDA.
===============================================================================================
Layer (type:depth-idx)                        Output Shape              Param #
===============================================================================================
S4MAE                                         [1, 2, 1440]              --
├─PatchMasking: 1-1                           [1, 2, 1440]              --
├─Identity: 1-2                               [1, 2, 1440]              --
├─S4Model: 1-3                                [1, 1440, 128]            --
│    └─Linear: 2-1                            [1, 1440, 128]            384
│    └─ModuleList: 2-17                       --                        (recursive)
│    │    └─S4Block: 3-1                      [1, 128, 1440]            66,048
│    └─ModuleList: 2-18                       --                        --
│    │    └─Dropout1d: 3-2                    [1, 128, 1440]            --
│    └─ModuleList: 2-19                       --                        (recursive)
│    │    └─LayerNorm: 3-3                    [1, 1440, 128]            256
│    └─ModuleList: 2-17                       --                        (recursive)
│    │    └─S4Block: 3-4                      [1, 128, 1440]            66,048
│    └─ModuleList: 2-18                       --                        --
│    │    └─Dropout1d: 3-5                    [1, 128, 1440]            --
│    └─ModuleList: 2-19                       --                        (recursive)
│    │    └─LayerNorm: 3-6                    [1, 1440, 128]            256
│    └─ModuleList: 2-17                       --                        (recursive)
│    │    └─S4Block: 3-7                      [1, 128, 1440]            66,048
│    └─ModuleList: 2-18                       --                        --
│    │    └─Dropout1d: 3-8                    [1, 128, 1440]            --
│    └─ModuleList: 2-19                       --                        (recursive)
│    │    └─LayerNorm: 3-9                    [1, 1440, 128]            256
│    └─ModuleList: 2-17                       --                        (recursive)
│    │    └─S4Block: 3-10                     [1, 128, 1440]            66,048
│    └─ModuleList: 2-18                       --                        --
│    │    └─Dropout1d: 3-11                   [1, 128, 1440]            --
│    └─ModuleList: 2-19                       --                        (recursive)
│    │    └─LayerNorm: 3-12                   [1, 1440, 128]            256
│    └─ModuleList: 2-17                       --                        (recursive)
│    │    └─S4Block: 3-13                     [1, 128, 1440]            66,048
│    └─ModuleList: 2-18                       --                        --
│    │    └─Dropout1d: 3-14                   [1, 128, 1440]            --
│    └─ModuleList: 2-19                       --                        (recursive)
│    │    └─LayerNorm: 3-15                   [1, 1440, 128]            256
│    └─ModuleList: 2-17                       --                        (recursive)
│    │    └─S4Block: 3-16                     [1, 128, 1440]            66,048
│    └─ModuleList: 2-18                       --                        --
│    │    └─Dropout1d: 3-17                   [1, 128, 1440]            --
│    └─ModuleList: 2-19                       --                        (recursive)
│    │    └─LayerNorm: 3-18                   [1, 1440, 128]            256
│    └─Linear: 2-20                           [1, 1440, 128]            16,512
├─ConvDecoder: 1-4                            [1, 2, 1440]              --
│    └─ModuleList: 2-21                       --                        --
│    │    └─BlockConv: 3-19                   [1, 64, 1440]             24,768
│    │    └─BlockConv: 3-20                   [1, 32, 1440]             6,240
│    │    └─BlockDecoderLast: 3-21            [1, 2, 1440]              198
===============================================================================================
Total params: 445,926
Trainable params: 445,926
Non-trainable params: 0
Total mult-adds (Units.MEGABYTES): 44.87
===============================================================================================
Input size (MB): 0.01
Forward/backward pass size (MB): 40.57
Params size (MB): 1.78
Estimated Total Size (MB): 42.37
…
