…
wandb: Synced 5 W&B file(s), 0 media file(s), 2 artifact file(s) and 0 other file(s)
wandb: Find logs at: ./wandb/run-20260131_051254-hpailwwk/logs
{'d_input': 2,
 'd_model': 128,
 'd_output': 128,
 'dec_hidden_dims': [128, 64, 32],
 'enc_hidden_dims': [32, 64, 128],
 'mask_ratio': 0.7,
 'n_layers_s4': 6,
 'verbose': False}
Default device set to CUDA.
===============================================================================================
Layer (type:depth-idx)                        Output Shape              Param #
===============================================================================================
S4MAE                                         [1, 2, 1440]              --
├─PatchMasking: 1-1                           [1, 2, 1440]              --
├─ConvEncoder: 1-2                            [1, 128, 180]             --
│    └─ModuleList: 2-1                        --                        --
│    │    └─BlockConv: 3-1                    [1, 32, 720]              288
│    │    └─BlockConv: 3-2                    [1, 64, 360]              6,336
│    │    └─BlockConv: 3-3                    [1, 128, 180]             24,960
├─S4Model: 1-3                                [1, 180, 128]             --
│    └─Linear: 2-2                            [1, 180, 128]             16,512
│    └─ModuleList: 2-18                       --                        (recursive)
│    │    └─S4Block: 3-4                      [1, 128, 180]             66,048
│    └─ModuleList: 2-19                       --                        --
│    │    └─Dropout1d: 3-5                    [1, 128, 180]             --
│    └─ModuleList: 2-20                       --                        (recursive)
│    │    └─LayerNorm: 3-6                    [1, 180, 128]             256
│    └─ModuleList: 2-18                       --                        (recursive)
│    │    └─S4Block: 3-7                      [1, 128, 180]             66,048
│    └─ModuleList: 2-19                       --                        --
│    │    └─Dropout1d: 3-8                    [1, 128, 180]             --
│    └─ModuleList: 2-20                       --                        (recursive)
│    │    └─LayerNorm: 3-9                    [1, 180, 128]             256
│    └─ModuleList: 2-18                       --                        (recursive)
│    │    └─S4Block: 3-10                     [1, 128, 180]             66,048
│    └─ModuleList: 2-19                       --                        --
│    │    └─Dropout1d: 3-11                   [1, 128, 180]             --
│    └─ModuleList: 2-20                       --                        (recursive)
│    │    └─LayerNorm: 3-12                   [1, 180, 128]             256
│    └─ModuleList: 2-18                       --                        (recursive)
│    │    └─S4Block: 3-13                     [1, 128, 180]             66,048
│    └─ModuleList: 2-19                       --                        --
│    │    └─Dropout1d: 3-14                   [1, 128, 180]             --
│    └─ModuleList: 2-20                       --                        (recursive)
│    │    └─LayerNorm: 3-15                   [1, 180, 128]             256
│    └─ModuleList: 2-18                       --                        (recursive)
│    │    └─S4Block: 3-16                     [1, 128, 180]             66,048
│    └─ModuleList: 2-19                       --                        --
│    │    └─Dropout1d: 3-17                   [1, 128, 180]             --
│    └─ModuleList: 2-20                       --                        (recursive)
│    │    └─LayerNorm: 3-18                   [1, 180, 128]             256
│    └─ModuleList: 2-18                       --                        (recursive)
│    │    └─S4Block: 3-19                     [1, 128, 180]             66,048
│    └─ModuleList: 2-19                       --                        --
│    │    └─Dropout1d: 3-20                   [1, 128, 180]             --
│    └─ModuleList: 2-20                       --                        (recursive)
│    │    └─LayerNorm: 3-21                   [1, 180, 128]             256
│    └─Linear: 2-21                           [1, 180, 128]             16,512
├─ConvDecoder: 1-4                            [1, 2, 1440]              --
│    └─ModuleList: 2-22                       --                        --
│    │    └─BlockConv: 3-22                   [1, 64, 360]              24,768
│    │    └─BlockConv: 3-23                   [1, 32, 720]              6,240
│    │    └─BlockDecoderLast: 3-24            [1, 2, 1440]              198
===============================================================================================
Total params: 493,638
Trainable params: 493,638
Non-trainable params: 0
Total mult-adds (Units.MEGABYTES): 20.67
===============================================================================================
Input size (MB): 0.01
Forward/backward pass size (MB): 6.66
Params size (MB): 1.97
Estimated Total Size (MB): 8.64
…
